#loc = loc("/var/lib/jenkins/OAI-triton/python/../fa/flash-attention.py":435:0)
#loc1 = loc(unknown)
#loc75 = loc("/var/lib/jenkins/OAI-triton/python/../fa/flash-attention.py":677:52)
#loc104 = loc("/var/lib/jenkins/OAI-triton/python/../fa/flash-attention.py":304:42)
#loc113 = loc("/var/lib/jenkins/OAI-triton/python/../fa/flash-attention.py":310:25)
#loc150 = loc(callsite(#loc104 at #loc75))
#loc157 = loc(callsite(#loc113 at #loc75))
#loc171 = loc(callsite(#loc1 at #loc150))
#loc173 = loc(callsite(#loc1 at #loc157))
module {
  tt.func public @attn_fwd(%arg0: !tt.ptr<f16> {tt.divisibility = 16 : i32, tt.pointer_range = 32 : i32} loc("/var/lib/jenkins/OAI-triton/python/../fa/flash-attention.py":435:0), %arg1: !tt.ptr<f16> {tt.divisibility = 16 : i32, tt.pointer_range = 32 : i32} loc("/var/lib/jenkins/OAI-triton/python/../fa/flash-attention.py":435:0), %arg2: !tt.ptr<f16> {tt.divisibility = 16 : i32, tt.pointer_range = 32 : i32} loc("/var/lib/jenkins/OAI-triton/python/../fa/flash-attention.py":435:0), %arg3: !tt.ptr<f32> {tt.divisibility = 16 : i32, tt.pointer_range = 32 : i32} loc("/var/lib/jenkins/OAI-triton/python/../fa/flash-attention.py":435:0), %arg4: !tt.ptr<f16> {tt.divisibility = 16 : i32, tt.pointer_range = 32 : i32} loc("/var/lib/jenkins/OAI-triton/python/../fa/flash-attention.py":435:0), %arg5: i32 {tt.divisibility = 16 : i32} loc("/var/lib/jenkins/OAI-triton/python/../fa/flash-attention.py":435:0), %arg6: i32 {tt.divisibility = 16 : i32} loc("/var/lib/jenkins/OAI-triton/python/../fa/flash-attention.py":435:0), %arg7: i32 {tt.divisibility = 16 : i32} loc("/var/lib/jenkins/OAI-triton/python/../fa/flash-attention.py":435:0), %arg8: i32 {tt.divisibility = 16 : i32} loc("/var/lib/jenkins/OAI-triton/python/../fa/flash-attention.py":435:0), %arg9: i32 {tt.divisibility = 16 : i32} loc("/var/lib/jenkins/OAI-triton/python/../fa/flash-attention.py":435:0), %arg10: i32 {tt.divisibility = 16 : i32} loc("/var/lib/jenkins/OAI-triton/python/../fa/flash-attention.py":435:0), %arg11: i32 {tt.divisibility = 16 : i32} loc("/var/lib/jenkins/OAI-triton/python/../fa/flash-attention.py":435:0), %arg12: i32 {tt.divisibility = 16 : i32} loc("/var/lib/jenkins/OAI-triton/python/../fa/flash-attention.py":435:0), %arg13: i32 {tt.divisibility = 16 : i32} loc("/var/lib/jenkins/OAI-triton/python/../fa/flash-attention.py":435:0), %arg14: i32 {tt.divisibility = 16 : i32} loc("/var/lib/jenkins/OAI-triton/python/../fa/flash-attention.py":435:0), %arg15: i32 {tt.divisibility = 16 : i32} loc("/var/lib/jenkins/OAI-triton/python/../fa/flash-attention.py":435:0), %arg16: i32 {tt.divisibility = 16 : i32} loc("/var/lib/jenkins/OAI-triton/python/../fa/flash-attention.py":435:0), %arg17: i32 {tt.divisibility = 16 : i32} loc("/var/lib/jenkins/OAI-triton/python/../fa/flash-attention.py":435:0), %arg18: i32 {tt.divisibility = 16 : i32} loc("/var/lib/jenkins/OAI-triton/python/../fa/flash-attention.py":435:0), %arg19: i32 {tt.divisibility = 16 : i32} loc("/var/lib/jenkins/OAI-triton/python/../fa/flash-attention.py":435:0), %arg20: i32 {tt.divisibility = 16 : i32} loc("/var/lib/jenkins/OAI-triton/python/../fa/flash-attention.py":435:0), %arg21: i32 {tt.divisibility = 16 : i32} loc("/var/lib/jenkins/OAI-triton/python/../fa/flash-attention.py":435:0), %arg22: i32 {tt.divisibility = 16 : i32} loc("/var/lib/jenkins/OAI-triton/python/../fa/flash-attention.py":435:0), %arg23: f32 loc("/var/lib/jenkins/OAI-triton/python/../fa/flash-attention.py":435:0), %arg24: i32 loc("/var/lib/jenkins/OAI-triton/python/../fa/flash-attention.py":435:0), %arg25: !tt.ptr<i32> {tt.divisibility = 16 : i32, tt.pointer_range = 32 : i32} loc("/var/lib/jenkins/OAI-triton/python/../fa/flash-attention.py":435:0), %arg26: i32 loc("/var/lib/jenkins/OAI-triton/python/../fa/flash-attention.py":435:0)) attributes {noinline = false} {
    %c8192_i32 = arith.constant 8192 : i32 loc(#loc1)
    %cst = arith.constant dense<0.000000e+00> : tensor<256x64xf32> loc(#loc1)
    %cst_0 = arith.constant dense<0.127517432> : tensor<256xf32> loc(#loc1)
    %cst_1 = arith.constant dense<0.127517432> : tensor<256x64xf32> loc(#loc1)
    %cst_2 = arith.constant dense<0.000000e+00> : tensor<256x128xf32> loc(#loc1)
    %c16640_i32 = arith.constant 16640 : i32 loc(#loc1)
    %c786432_i32 = arith.constant 786432 : i32 loc(#loc1)
    %cst_3 = arith.constant dense<0.000000e+00> : tensor<256x128xf16> loc(#loc1)
    %cst_4 = arith.constant dense<true> : tensor<256x128xi1> loc(#loc1)
    %cst_5 = arith.constant dense<1.000000e+00> : tensor<256x1xf32> loc(#loc1)
    %cst_6 = arith.constant dense<16384> : tensor<256x1xi32> loc(#loc1)
    %cst_7 = arith.constant dense<1.000000e+00> : tensor<256xf32> loc(#loc1)
    %cst_8 = arith.constant dense<0xFF800000> : tensor<256xf32> loc(#loc1)
    %c64_i32 = arith.constant 64 : i32 loc(#loc1)
    %c16384_i32 = arith.constant 16384 : i32 loc(#loc1)
    %c256_i32 = arith.constant 256 : i32 loc(#loc1)
    %c1_i32 = arith.constant 1 : i32 loc(#loc1)
    %true = arith.constant true loc(#loc1)
    %c0_i32 = arith.constant 0 : i32 loc(#loc1)
    %0 = arith.cmpi sge, %arg5, %c0_i32 : i32 loc(#loc2)
    llvm.intr.assume %0 : i1 loc(#loc3)
    %1 = arith.cmpi sge, %arg6, %c0_i32 : i32 loc(#loc4)
    llvm.intr.assume %1 : i1 loc(#loc5)
    %2 = arith.cmpi sge, %arg7, %c0_i32 : i32 loc(#loc6)
    llvm.intr.assume %2 : i1 loc(#loc7)
    llvm.intr.assume %true : i1 loc(#loc8)
    %3 = arith.cmpi sge, %arg8, %c0_i32 : i32 loc(#loc9)
    llvm.intr.assume %3 : i1 loc(#loc10)
    %4 = arith.cmpi sge, %arg9, %c0_i32 : i32 loc(#loc11)
    llvm.intr.assume %4 : i1 loc(#loc12)
    %5 = arith.cmpi sge, %arg10, %c0_i32 : i32 loc(#loc13)
    llvm.intr.assume %5 : i1 loc(#loc14)
    llvm.intr.assume %true : i1 loc(#loc15)
    %6 = arith.cmpi sge, %arg17, %c0_i32 : i32 loc(#loc16)
    llvm.intr.assume %6 : i1 loc(#loc17)
    %7 = arith.cmpi sge, %arg18, %c0_i32 : i32 loc(#loc18)
    llvm.intr.assume %7 : i1 loc(#loc19)
    %8 = arith.cmpi sge, %arg19, %c0_i32 : i32 loc(#loc20)
    llvm.intr.assume %8 : i1 loc(#loc21)
    %9 = arith.cmpi sge, %arg20, %c0_i32 : i32 loc(#loc22)
    llvm.intr.assume %9 : i1 loc(#loc23)
    %10 = arith.cmpi sge, %arg11, %c0_i32 : i32 loc(#loc24)
    llvm.intr.assume %10 : i1 loc(#loc25)
    %11 = arith.cmpi sge, %arg12, %c0_i32 : i32 loc(#loc26)
    llvm.intr.assume %11 : i1 loc(#loc27)
    %12 = arith.cmpi sge, %arg13, %c0_i32 : i32 loc(#loc28)
    llvm.intr.assume %12 : i1 loc(#loc29)
    llvm.intr.assume %true : i1 loc(#loc30)
    %13 = arith.cmpi sge, %arg14, %c0_i32 : i32 loc(#loc31)
    llvm.intr.assume %13 : i1 loc(#loc32)
    %14 = arith.cmpi sge, %arg15, %c0_i32 : i32 loc(#loc33)
    llvm.intr.assume %14 : i1 loc(#loc34)
    %15 = arith.cmpi sge, %arg16, %c0_i32 : i32 loc(#loc35)
    llvm.intr.assume %15 : i1 loc(#loc36)
    llvm.intr.assume %true : i1 loc(#loc37)
    %16 = tt.get_program_id x : i32 loc(#loc38)
    %17 = tt.get_program_id y : i32 loc(#loc39)
    %18 = tt.get_program_id z : i32 loc(#loc40)
    %19 = arith.muli %16, %c256_i32 : i32 loc(#loc41)
    %20 = tt.make_range {end = 256 : i32, start = 0 : i32} : tensor<256xi32> loc(#loc42)
    %21 = tt.splat %19 : i32 -> tensor<256xi32> loc(#loc43)
    %22 = arith.addi %21, %20 : tensor<256xi32> loc(#loc43)
    %23 = tt.make_range {end = 64 : i32, start = 0 : i32} : tensor<64xi32> loc(#loc44)
    %24 = tt.make_range {end = 128 : i32, start = 0 : i32} : tensor<128xi32> loc(#loc45)
    %25 = arith.muli %18, %arg5 : i32 loc(#loc46)
    %26 = tt.addptr %arg0, %25 : !tt.ptr<f16>, i32 loc(#loc47)
    %27 = arith.muli %17, %arg6 : i32 loc(#loc48)
    %28 = tt.addptr %26, %27 : !tt.ptr<f16>, i32 loc(#loc49)
    %29 = tt.expand_dims %22 {axis = 1 : i32} : tensor<256xi32> -> tensor<256x1xi32> loc(#loc50)
    %30 = tt.splat %arg7 : i32 -> tensor<256x1xi32> loc(#loc51)
    %31 = arith.muli %29, %30 : tensor<256x1xi32> loc(#loc51)
    %32 = tt.splat %28 : !tt.ptr<f16> -> tensor<256x1x!tt.ptr<f16>> loc(#loc52)
    %33 = tt.addptr %32, %31 : tensor<256x1x!tt.ptr<f16>>, tensor<256x1xi32> loc(#loc52)
    %34 = tt.expand_dims %24 {axis = 0 : i32} : tensor<128xi32> -> tensor<1x128xi32> loc(#loc53)
    %35 = tt.broadcast %33 : tensor<256x1x!tt.ptr<f16>> -> tensor<256x128x!tt.ptr<f16>> loc(#loc54)
    %36 = tt.broadcast %34 : tensor<1x128xi32> -> tensor<256x128xi32> loc(#loc54)
    %37 = tt.addptr %35, %36 : tensor<256x128x!tt.ptr<f16>>, tensor<256x128xi32> loc(#loc54)
    %38 = arith.muli %18, %arg8 : i32 loc(#loc55)
    %39 = tt.addptr %arg1, %38 : !tt.ptr<f16>, i32 loc(#loc56)
    %40 = arith.muli %17, %arg9 : i32 loc(#loc57)
    %41 = tt.addptr %39, %40 : !tt.ptr<f16>, i32 loc(#loc58)
    %42 = tt.expand_dims %24 {axis = 1 : i32} : tensor<128xi32> -> tensor<128x1xi32> loc(#loc59)
    %43 = tt.splat %41 : !tt.ptr<f16> -> tensor<128x1x!tt.ptr<f16>> loc(#loc60)
    %44 = tt.addptr %43, %42 : tensor<128x1x!tt.ptr<f16>>, tensor<128x1xi32> loc(#loc60)
    %45 = tt.expand_dims %23 {axis = 0 : i32} : tensor<64xi32> -> tensor<1x64xi32> loc(#loc61)
    %46 = tt.splat %arg10 : i32 -> tensor<1x64xi32> loc(#loc62)
    %47 = arith.muli %45, %46 : tensor<1x64xi32> loc(#loc62)
    %48 = tt.broadcast %44 : tensor<128x1x!tt.ptr<f16>> -> tensor<128x64x!tt.ptr<f16>> loc(#loc63)
    %49 = tt.broadcast %47 : tensor<1x64xi32> -> tensor<128x64xi32> loc(#loc63)
    %50 = tt.addptr %48, %49 : tensor<128x64x!tt.ptr<f16>>, tensor<128x64xi32> loc(#loc63)
    %51 = arith.muli %18, %arg11 : i32 loc(#loc64)
    %52 = tt.addptr %arg2, %51 : !tt.ptr<f16>, i32 loc(#loc65)
    %53 = arith.muli %17, %arg12 : i32 loc(#loc66)
    %54 = tt.addptr %52, %53 : !tt.ptr<f16>, i32 loc(#loc67)
    %55 = tt.expand_dims %23 {axis = 1 : i32} : tensor<64xi32> -> tensor<64x1xi32> loc(#loc68)
    %56 = tt.splat %arg13 : i32 -> tensor<64x1xi32> loc(#loc69)
    %57 = arith.muli %55, %56 : tensor<64x1xi32> loc(#loc69)
    %58 = tt.splat %54 : !tt.ptr<f16> -> tensor<64x1x!tt.ptr<f16>> loc(#loc70)
    %59 = tt.addptr %58, %57 : tensor<64x1x!tt.ptr<f16>>, tensor<64x1xi32> loc(#loc70)
    %60 = tt.broadcast %59 : tensor<64x1x!tt.ptr<f16>> -> tensor<64x128x!tt.ptr<f16>> loc(#loc71)
    %61 = tt.broadcast %34 : tensor<1x128xi32> -> tensor<64x128xi32> loc(#loc71)
    %62 = tt.addptr %60, %61 : tensor<64x128x!tt.ptr<f16>>, tensor<64x128xi32> loc(#loc71)
    %63 = arith.cmpi slt, %29, %cst_6 : tensor<256x1xi32> loc(#loc72)
    %64 = tt.broadcast %63 : tensor<256x1xi1> -> tensor<256x128xi1> loc(#loc73)
    %65 = arith.muli %arg10, %c64_i32 : i32 loc(#loc143)
    %66 = tt.splat %65 : i32 -> tensor<128x64xi32> loc(#loc144)
    %67 = arith.muli %arg13, %c64_i32 : i32 loc(#loc145)
    %68 = tt.splat %67 : i32 -> tensor<64x128xi32> loc(#loc146)
    %69 = arith.addi %16, %c1_i32 : i32 loc(#loc79)
    %70 = arith.muli %69, %c256_i32 : i32 loc(#loc80)
    %71 = arith.muli %18, %c786432_i32 : i32 loc(#loc81)
    %72 = tt.addptr %arg3, %71 : !tt.ptr<f32>, i32 loc(#loc82)
    %73 = arith.muli %17, %c16384_i32 : i32 loc(#loc83)
    %74 = tt.addptr %72, %73 : !tt.ptr<f32>, i32 loc(#loc84)
    %75 = tt.splat %74 : !tt.ptr<f32> -> tensor<256x!tt.ptr<f32>> loc(#loc85)
    %76 = tt.addptr %75, %22 : tensor<256x!tt.ptr<f32>>, tensor<256xi32> loc(#loc85)
    %77 = arith.subi %70, %c16384_i32 : i32 loc(#loc86)
    %78 = arith.cmpi sgt, %77, %c0_i32 : i32 loc(#loc87)
    %79 = arith.muli %18, %arg14 : i32 loc(#loc88)
    %80 = tt.addptr %arg4, %79 : !tt.ptr<f16>, i32 loc(#loc89)
    %81 = arith.muli %17, %arg15 : i32 loc(#loc90)
    %82 = tt.addptr %80, %81 : !tt.ptr<f16>, i32 loc(#loc91)
    %83 = tt.splat %arg16 : i32 -> tensor<256x1xi32> loc(#loc92)
    %84 = arith.muli %29, %83 : tensor<256x1xi32> loc(#loc92)
    %85 = tt.splat %82 : !tt.ptr<f16> -> tensor<256x1x!tt.ptr<f16>> loc(#loc93)
    %86 = tt.addptr %85, %84 : tensor<256x1x!tt.ptr<f16>>, tensor<256x1xi32> loc(#loc93)
    %87 = tt.broadcast %86 : tensor<256x1x!tt.ptr<f16>> -> tensor<256x128x!tt.ptr<f16>> loc(#loc94)
    %88 = tt.addptr %87, %36 : tensor<256x128x!tt.ptr<f16>>, tensor<256x128xi32> loc(#loc94)
    %89 = scf.if %78 -> (tensor<256x128xi1>) {
      scf.yield %64 : tensor<256x128xi1> loc(#loc96)
    } else {
      scf.yield %cst_4 : tensor<256x128xi1> loc(#loc1)
    } loc(#loc95)
    scf.while (%arg27 = %c0_i32) : (i32) -> () {
      %90 = arith.cmpi slt, %arg27, %c1_i32 : i32 loc(#loc98)
      scf.condition(%90) loc(#loc98)
    } do {
      %90 = tt.load %37, %64, %cst_3 : tensor<256x128x!tt.ptr<f16>> loc(#loc73)
      %91:5 = scf.for %arg27 = %c0_i32 to %c8192_i32 step %c64_i32 iter_args(%arg28 = %cst_2, %arg29 = %cst_7, %arg30 = %cst_8, %arg31 = %50, %arg32 = %62) -> (tensor<256x128xf32>, tensor<256xf32>, tensor<256xf32>, tensor<128x64x!tt.ptr<f16>>, tensor<64x128x!tt.ptr<f16>>)  : i32 {
        %97 = tt.load %arg31 : tensor<128x64x!tt.ptr<f16>> loc(#loc169)
        %98 = tt.dot %90, %97, %cst : tensor<256x128xf16> * tensor<128x64xf16> -> tensor<256x64xf32> loc(#loc149)
        %99 = "tt.reduce"(%98) <{axis = 1 : i32}> ({
        ^bb0(%arg33: f32 loc(callsite(#loc1 at #loc150)), %arg34: f32 loc(callsite(#loc1 at #loc150))):
          %121 = arith.maxnumf %arg33, %arg34 : f32 loc(#loc175)
          tt.reduce.return %121 : f32 loc(#loc170)
        }) : (tensor<256x64xf32>) -> tensor<256xf32> loc(#loc170)
        %100 = arith.maxnumf %arg30, %99 : tensor<256xf32> loc(#loc151)
        %101 = arith.mulf %100, %cst_0 : tensor<256xf32> loc(#loc152)
        %102 = arith.mulf %98, %cst_1 : tensor<256x64xf32> loc(#loc153)
        %103 = tt.expand_dims %101 {axis = 1 : i32} : tensor<256xf32> -> tensor<256x1xf32> loc(#loc154)
        %104 = tt.broadcast %103 : tensor<256x1xf32> -> tensor<256x64xf32> loc(#loc155)
        %105 = arith.subf %102, %104 : tensor<256x64xf32> loc(#loc155)
        %106 = math.exp2 %105 : tensor<256x64xf32> loc(#loc156)
        %107 = "tt.reduce"(%106) <{axis = 1 : i32}> ({
        ^bb0(%arg33: f32 loc(callsite(#loc1 at #loc157)), %arg34: f32 loc(callsite(#loc1 at #loc157))):
          %121 = arith.addf %arg33, %arg34 : f32 loc(#loc176)
          tt.reduce.return %121 : f32 loc(#loc172)
        }) : (tensor<256x64xf32>) -> tensor<256xf32> loc(#loc172)
        %108 = arith.mulf %arg30, %cst_0 : tensor<256xf32> loc(#loc158)
        %109 = arith.subf %108, %101 : tensor<256xf32> loc(#loc159)
        %110 = math.exp2 %109 : tensor<256xf32> loc(#loc160)
        %111 = tt.expand_dims %110 {axis = 1 : i32} : tensor<256xf32> -> tensor<256x1xf32> loc(#loc161)
        %112 = tt.broadcast %111 : tensor<256x1xf32> -> tensor<256x128xf32> loc(#loc162)
        %113 = arith.mulf %arg28, %112 : tensor<256x128xf32> loc(#loc162)
        %114 = tt.load %arg32 : tensor<64x128x!tt.ptr<f16>> loc(#loc174)
        %115 = arith.mulf %arg29, %110 : tensor<256xf32> loc(#loc164)
        %116 = arith.addf %115, %107 : tensor<256xf32> loc(#loc165)
        %117 = arith.truncf %106 : tensor<256x64xf32> to tensor<256x64xf16> loc(#loc166)
        %118 = tt.dot %117, %114, %113 : tensor<256x64xf16> * tensor<64x128xf16> -> tensor<256x128xf32> loc(#loc167)
        %119 = tt.addptr %arg31, %66 : tensor<128x64x!tt.ptr<f16>>, tensor<128x64xi32> loc(#loc144)
        %120 = tt.addptr %arg32, %68 : tensor<64x128x!tt.ptr<f16>>, tensor<64x128xi32> loc(#loc146)
        scf.yield %118, %116, %100, %119, %120 : tensor<256x128xf32>, tensor<256xf32>, tensor<256xf32>, tensor<128x64x!tt.ptr<f16>>, tensor<64x128x!tt.ptr<f16>> loc(#loc168)
      } loc(#loc147)
      gpu.barrier loc(#loc126)
      %92 = tt.expand_dims %91#1 {axis = 1 : i32} : tensor<256xf32> -> tensor<256x1xf32> loc(#loc127)
      %93 = arith.divf %cst_5, %92 : tensor<256x1xf32> loc(#loc128)
      %94 = tt.broadcast %93 : tensor<256x1xf32> -> tensor<256x128xf32> loc(#loc129)
      %95 = arith.mulf %91#0, %94 : tensor<256x128xf32> loc(#loc129)
      %96 = arith.truncf %95 : tensor<256x128xf32> to tensor<256x128xf16> loc(#loc130)
      scf.if %78 {
        %97 = arith.subi %c16640_i32, %70 : i32 loc(#loc132)
        %98 = tt.splat %97 : i32 -> tensor<256xi32> loc(#loc133)
        %99 = arith.cmpi slt, %20, %98 : tensor<256xi32> loc(#loc134)
        %100 = math.log2 %91#1 : tensor<256xf32> loc(#loc135)
        %101 = arith.addf %91#2, %100 : tensor<256xf32> loc(#loc136)
        tt.store %76, %101, %99 : tensor<256x!tt.ptr<f32>> loc(#loc137)
      } else {
        %97 = math.log2 %91#1 : tensor<256xf32> loc(#loc138)
        %98 = arith.addf %91#2, %97 : tensor<256xf32> loc(#loc139)
        tt.store %76, %98 : tensor<256x!tt.ptr<f32>> loc(#loc140)
      } loc(#loc131)
      tt.store %88, %96, %89 : tensor<256x128x!tt.ptr<f16>> loc(#loc141)
      scf.yield %c1_i32 : i32 loc(#loc142)
    } loc(#loc97)
    tt.return loc(#loc97)
  } loc(#loc)
} loc(#loc)
#loc2 = loc("/var/lib/jenkins/OAI-triton/python/../fa/flash-attention.py":447:27)
#loc3 = loc("/var/lib/jenkins/OAI-triton/python/../fa/flash-attention.py":447:14)
#loc4 = loc("/var/lib/jenkins/OAI-triton/python/../fa/flash-attention.py":448:27)
#loc5 = loc("/var/lib/jenkins/OAI-triton/python/../fa/flash-attention.py":448:14)
#loc6 = loc("/var/lib/jenkins/OAI-triton/python/../fa/flash-attention.py":449:27)
#loc7 = loc("/var/lib/jenkins/OAI-triton/python/../fa/flash-attention.py":449:14)
#loc8 = loc("/var/lib/jenkins/OAI-triton/python/../fa/flash-attention.py":450:14)
#loc9 = loc("/var/lib/jenkins/OAI-triton/python/../fa/flash-attention.py":451:27)
#loc10 = loc("/var/lib/jenkins/OAI-triton/python/../fa/flash-attention.py":451:14)
#loc11 = loc("/var/lib/jenkins/OAI-triton/python/../fa/flash-attention.py":452:27)
#loc12 = loc("/var/lib/jenkins/OAI-triton/python/../fa/flash-attention.py":452:14)
#loc13 = loc("/var/lib/jenkins/OAI-triton/python/../fa/flash-attention.py":453:27)
#loc14 = loc("/var/lib/jenkins/OAI-triton/python/../fa/flash-attention.py":453:14)
#loc15 = loc("/var/lib/jenkins/OAI-triton/python/../fa/flash-attention.py":454:14)
#loc16 = loc("/var/lib/jenkins/OAI-triton/python/../fa/flash-attention.py":455:27)
#loc17 = loc("/var/lib/jenkins/OAI-triton/python/../fa/flash-attention.py":455:14)
#loc18 = loc("/var/lib/jenkins/OAI-triton/python/../fa/flash-attention.py":456:27)
#loc19 = loc("/var/lib/jenkins/OAI-triton/python/../fa/flash-attention.py":456:14)
#loc20 = loc("/var/lib/jenkins/OAI-triton/python/../fa/flash-attention.py":457:27)
#loc21 = loc("/var/lib/jenkins/OAI-triton/python/../fa/flash-attention.py":457:14)
#loc22 = loc("/var/lib/jenkins/OAI-triton/python/../fa/flash-attention.py":458:27)
#loc23 = loc("/var/lib/jenkins/OAI-triton/python/../fa/flash-attention.py":458:14)
#loc24 = loc("/var/lib/jenkins/OAI-triton/python/../fa/flash-attention.py":459:27)
#loc25 = loc("/var/lib/jenkins/OAI-triton/python/../fa/flash-attention.py":459:14)
#loc26 = loc("/var/lib/jenkins/OAI-triton/python/../fa/flash-attention.py":460:27)
#loc27 = loc("/var/lib/jenkins/OAI-triton/python/../fa/flash-attention.py":460:14)
#loc28 = loc("/var/lib/jenkins/OAI-triton/python/../fa/flash-attention.py":461:27)
#loc29 = loc("/var/lib/jenkins/OAI-triton/python/../fa/flash-attention.py":461:14)
#loc30 = loc("/var/lib/jenkins/OAI-triton/python/../fa/flash-attention.py":462:14)
#loc31 = loc("/var/lib/jenkins/OAI-triton/python/../fa/flash-attention.py":463:27)
#loc32 = loc("/var/lib/jenkins/OAI-triton/python/../fa/flash-attention.py":463:14)
#loc33 = loc("/var/lib/jenkins/OAI-triton/python/../fa/flash-attention.py":464:27)
#loc34 = loc("/var/lib/jenkins/OAI-triton/python/../fa/flash-attention.py":464:14)
#loc35 = loc("/var/lib/jenkins/OAI-triton/python/../fa/flash-attention.py":465:27)
#loc36 = loc("/var/lib/jenkins/OAI-triton/python/../fa/flash-attention.py":465:14)
#loc37 = loc("/var/lib/jenkins/OAI-triton/python/../fa/flash-attention.py":466:14)
#loc38 = loc("/var/lib/jenkins/OAI-triton/python/../fa/flash-attention.py":488:36)
#loc39 = loc("/var/lib/jenkins/OAI-triton/python/../fa/flash-attention.py":489:36)
#loc40 = loc("/var/lib/jenkins/OAI-triton/python/../fa/flash-attention.py":490:34)
#loc41 = loc("/var/lib/jenkins/OAI-triton/python/../fa/flash-attention.py":492:27)
#loc42 = loc("/var/lib/jenkins/OAI-triton/python/../fa/flash-attention.py":492:50)
#loc43 = loc("/var/lib/jenkins/OAI-triton/python/../fa/flash-attention.py":492:37)
#loc44 = loc("/var/lib/jenkins/OAI-triton/python/../fa/flash-attention.py":493:30)
#loc45 = loc("/var/lib/jenkins/OAI-triton/python/../fa/flash-attention.py":494:30)
#loc46 = loc("/var/lib/jenkins/OAI-triton/python/../fa/flash-attention.py":571:39)
#loc47 = loc("/var/lib/jenkins/OAI-triton/python/../fa/flash-attention.py":571:31)
#loc48 = loc("/var/lib/jenkins/OAI-triton/python/../fa/flash-attention.py":571:61)
#loc49 = loc("/var/lib/jenkins/OAI-triton/python/../fa/flash-attention.py":571:51)
#loc50 = loc("/var/lib/jenkins/OAI-triton/python/../fa/flash-attention.py":572:43)
#loc51 = loc("/var/lib/jenkins/OAI-triton/python/../fa/flash-attention.py":572:54)
#loc52 = loc("/var/lib/jenkins/OAI-triton/python/../fa/flash-attention.py":572:36)
#loc53 = loc("/var/lib/jenkins/OAI-triton/python/../fa/flash-attention.py":572:73)
#loc54 = loc("/var/lib/jenkins/OAI-triton/python/../fa/flash-attention.py":572:66)
#loc55 = loc("/var/lib/jenkins/OAI-triton/python/../fa/flash-attention.py":573:39)
#loc56 = loc("/var/lib/jenkins/OAI-triton/python/../fa/flash-attention.py":573:31)
#loc57 = loc("/var/lib/jenkins/OAI-triton/python/../fa/flash-attention.py":573:61)
#loc58 = loc("/var/lib/jenkins/OAI-triton/python/../fa/flash-attention.py":573:51)
#loc59 = loc("/var/lib/jenkins/OAI-triton/python/../fa/flash-attention.py":574:43)
#loc60 = loc("/var/lib/jenkins/OAI-triton/python/../fa/flash-attention.py":574:36)
#loc61 = loc("/var/lib/jenkins/OAI-triton/python/../fa/flash-attention.py":574:73)
#loc62 = loc("/var/lib/jenkins/OAI-triton/python/../fa/flash-attention.py":574:84)
#loc63 = loc("/var/lib/jenkins/OAI-triton/python/../fa/flash-attention.py":574:66)
#loc64 = loc("/var/lib/jenkins/OAI-triton/python/../fa/flash-attention.py":575:39)
#loc65 = loc("/var/lib/jenkins/OAI-triton/python/../fa/flash-attention.py":575:31)
#loc66 = loc("/var/lib/jenkins/OAI-triton/python/../fa/flash-attention.py":575:61)
#loc67 = loc("/var/lib/jenkins/OAI-triton/python/../fa/flash-attention.py":575:51)
#loc68 = loc("/var/lib/jenkins/OAI-triton/python/../fa/flash-attention.py":576:43)
#loc69 = loc("/var/lib/jenkins/OAI-triton/python/../fa/flash-attention.py":576:54)
#loc70 = loc("/var/lib/jenkins/OAI-triton/python/../fa/flash-attention.py":576:36)
#loc71 = loc("/var/lib/jenkins/OAI-triton/python/../fa/flash-attention.py":576:66)
#loc72 = loc("/var/lib/jenkins/OAI-triton/python/../fa/flash-attention.py":622:48)
#loc73 = loc("/var/lib/jenkins/OAI-triton/python/../fa/flash-attention.py":625:28)
#loc74 = loc("/var/lib/jenkins/OAI-triton/python/../fa/flash-attention.py":342:28)
#loc76 = loc("/var/lib/jenkins/OAI-triton/python/../fa/flash-attention.py":342:18)
#loc77 = loc("/var/lib/jenkins/OAI-triton/python/../fa/flash-attention.py":343:28)
#loc78 = loc("/var/lib/jenkins/OAI-triton/python/../fa/flash-attention.py":343:18)
#loc79 = loc("/var/lib/jenkins/OAI-triton/python/../fa/flash-attention.py":719:39)
#loc80 = loc("/var/lib/jenkins/OAI-triton/python/../fa/flash-attention.py":719:44)
#loc81 = loc("/var/lib/jenkins/OAI-triton/python/../fa/flash-attention.py":731:42)
#loc82 = loc("/var/lib/jenkins/OAI-triton/python/../fa/flash-attention.py":731:29)
#loc83 = loc("/var/lib/jenkins/OAI-triton/python/../fa/flash-attention.py":731:68)
#loc84 = loc("/var/lib/jenkins/OAI-triton/python/../fa/flash-attention.py":731:58)
#loc85 = loc("/var/lib/jenkins/OAI-triton/python/../fa/flash-attention.py":731:84)
#loc86 = loc("/var/lib/jenkins/OAI-triton/python/../fa/flash-attention.py":734:44)
#loc87 = loc("/var/lib/jenkins/OAI-triton/python/../fa/flash-attention.py":735:35)
#loc88 = loc("/var/lib/jenkins/OAI-triton/python/../fa/flash-attention.py":743:41)
#loc89 = loc("/var/lib/jenkins/OAI-triton/python/../fa/flash-attention.py":743:33)
#loc90 = loc("/var/lib/jenkins/OAI-triton/python/../fa/flash-attention.py":743:63)
#loc91 = loc("/var/lib/jenkins/OAI-triton/python/../fa/flash-attention.py":743:53)
#loc92 = loc("/var/lib/jenkins/OAI-triton/python/../fa/flash-attention.py":744:54)
#loc93 = loc("/var/lib/jenkins/OAI-triton/python/../fa/flash-attention.py":744:36)
#loc94 = loc("/var/lib/jenkins/OAI-triton/python/../fa/flash-attention.py":744:66)
#loc95 = loc("/var/lib/jenkins/OAI-triton/python/../fa/flash-attention.py":746:19)
#loc96 = loc("/var/lib/jenkins/OAI-triton/python/../fa/flash-attention.py":747:49)
#loc97 = loc("/var/lib/jenkins/OAI-triton/python/../fa/flash-attention.py":481:4)
#loc98 = loc("/var/lib/jenkins/OAI-triton/python/../fa/flash-attention.py":481:20)
#loc99 = loc("/var/lib/jenkins/OAI-triton/python/../fa/flash-attention.py":248:47)
#loc100 = loc("/var/lib/jenkins/OAI-triton/python/../fa/flash-attention.py":185:25)
#loc101 = loc("/var/lib/jenkins/OAI-triton/python/../fa/flash-attention.py":256:69)
#loc102 = loc("/var/lib/jenkins/OAI-triton/python/../fa/flash-attention.py":285:28)
#loc103 = loc("/var/lib/jenkins/OAI-triton/python/triton/language/standard.py":188:40)
#loc105 = loc("/var/lib/jenkins/OAI-triton/python/triton/language/standard.py":167:27)
#loc106 = loc("/var/lib/jenkins/OAI-triton/python/../fa/flash-attention.py":304:31)
#loc107 = loc("/var/lib/jenkins/OAI-triton/python/../fa/flash-attention.py":305:29)
#loc108 = loc("/var/lib/jenkins/OAI-triton/python/../fa/flash-attention.py":306:18)
#loc109 = loc("/var/lib/jenkins/OAI-triton/python/../fa/flash-attention.py":306:41)
#loc110 = loc("/var/lib/jenkins/OAI-triton/python/../fa/flash-attention.py":306:29)
#loc111 = loc("/var/lib/jenkins/OAI-triton/python/../fa/flash-attention.py":307:25)
#loc112 = loc("/var/lib/jenkins/OAI-triton/python/triton/language/standard.py":290:36)
#loc114 = loc("/var/lib/jenkins/OAI-triton/python/triton/language/standard.py":260:15)
#loc115 = loc("/var/lib/jenkins/OAI-triton/python/../fa/flash-attention.py":320:35)
#loc116 = loc("/var/lib/jenkins/OAI-triton/python/../fa/flash-attention.py":320:46)
#loc117 = loc("/var/lib/jenkins/OAI-triton/python/../fa/flash-attention.py":320:29)
#loc118 = loc("/var/lib/jenkins/OAI-triton/python/../fa/flash-attention.py":321:26)
#loc119 = loc("/var/lib/jenkins/OAI-triton/python/../fa/flash-attention.py":321:20)
#loc120 = loc("/var/lib/jenkins/OAI-triton/python/../fa/flash-attention.py":323:69)
#loc121 = loc("/var/lib/jenkins/OAI-triton/python/../fa/flash-attention.py":325:20)
#loc122 = loc("/var/lib/jenkins/OAI-triton/python/../fa/flash-attention.py":325:28)
#loc123 = loc("/var/lib/jenkins/OAI-triton/python/../fa/flash-attention.py":340:31)
#loc124 = loc("/var/lib/jenkins/OAI-triton/python/../fa/flash-attention.py":340:51)
#loc125 = loc("/var/lib/jenkins/OAI-triton/python/../fa/flash-attention.py":346:8)
#loc126 = loc("/var/lib/jenkins/OAI-triton/python/../fa/flash-attention.py":681:16)
#loc127 = loc("/var/lib/jenkins/OAI-triton/python/../fa/flash-attention.py":710:34)
#loc128 = loc("/var/lib/jenkins/OAI-triton/python/../fa/flash-attention.py":710:30)
#loc129 = loc("/var/lib/jenkins/OAI-triton/python/../fa/flash-attention.py":711:28)
#loc130 = loc("/var/lib/jenkins/OAI-triton/python/../fa/flash-attention.py":722:29)
#loc131 = loc("/var/lib/jenkins/OAI-triton/python/../fa/flash-attention.py":735:19)
#loc132 = loc("/var/lib/jenkins/OAI-triton/python/../fa/flash-attention.py":736:62)
#loc133 = loc("/var/lib/jenkins/OAI-triton/python/../fa/flash-attention.py":736:52)
#loc134 = loc("/var/lib/jenkins/OAI-triton/python/../fa/flash-attention.py":737:58)
#loc135 = loc("/var/lib/jenkins/OAI-triton/python/../fa/flash-attention.py":738:56)
#loc136 = loc("/var/lib/jenkins/OAI-triton/python/../fa/flash-attention.py":738:43)
#loc137 = loc("/var/lib/jenkins/OAI-triton/python/../fa/flash-attention.py":738:37)
#loc138 = loc("/var/lib/jenkins/OAI-triton/python/../fa/flash-attention.py":740:56)
#loc139 = loc("/var/lib/jenkins/OAI-triton/python/../fa/flash-attention.py":740:43)
#loc140 = loc("/var/lib/jenkins/OAI-triton/python/../fa/flash-attention.py":740:37)
#loc141 = loc("/var/lib/jenkins/OAI-triton/python/../fa/flash-attention.py":750:33)
#loc142 = loc("/var/lib/jenkins/OAI-triton/python/../fa/flash-attention.py":752:8)
#loc143 = loc(callsite(#loc74 at #loc75))
#loc144 = loc(callsite(#loc76 at #loc75))
#loc145 = loc(callsite(#loc77 at #loc75))
#loc146 = loc(callsite(#loc78 at #loc75))
#loc147 = loc(callsite(#loc99 at #loc75))
#loc148 = loc(callsite(#loc101 at #loc75))
#loc149 = loc(callsite(#loc102 at #loc75))
#loc151 = loc(callsite(#loc106 at #loc75))
#loc152 = loc(callsite(#loc107 at #loc75))
#loc153 = loc(callsite(#loc108 at #loc75))
#loc154 = loc(callsite(#loc109 at #loc75))
#loc155 = loc(callsite(#loc110 at #loc75))
#loc156 = loc(callsite(#loc111 at #loc75))
#loc158 = loc(callsite(#loc115 at #loc75))
#loc159 = loc(callsite(#loc116 at #loc75))
#loc160 = loc(callsite(#loc117 at #loc75))
#loc161 = loc(callsite(#loc118 at #loc75))
#loc162 = loc(callsite(#loc119 at #loc75))
#loc163 = loc(callsite(#loc120 at #loc75))
#loc164 = loc(callsite(#loc121 at #loc75))
#loc165 = loc(callsite(#loc122 at #loc75))
#loc166 = loc(callsite(#loc123 at #loc75))
#loc167 = loc(callsite(#loc124 at #loc75))
#loc168 = loc(callsite(#loc125 at #loc75))
#loc169 = loc(callsite(#loc100 at #loc148))
#loc170 = loc(callsite(#loc103 at #loc150))
#loc172 = loc(callsite(#loc112 at #loc157))
#loc174 = loc(callsite(#loc100 at #loc163))
#loc175 = loc(callsite(#loc105 at #loc170))
#loc176 = loc(callsite(#loc114 at #loc172))
