#loc = loc("/home/mlevental/dev_projects/triton/python/triton_mlir/test/test_complex_matmul.py":27:0)
module {
  tt.func public @matmul_kernel(%arg0: !tt.ptr<f32> loc("/home/mlevental/dev_projects/triton/python/triton_mlir/test/test_complex_matmul.py":27:0), %arg1: !tt.ptr<f32> loc("/home/mlevental/dev_projects/triton/python/triton_mlir/test/test_complex_matmul.py":27:0), %arg2: !tt.ptr<f32> loc("/home/mlevental/dev_projects/triton/python/triton_mlir/test/test_complex_matmul.py":27:0), %arg3: !tt.ptr<f32> loc("/home/mlevental/dev_projects/triton/python/triton_mlir/test/test_complex_matmul.py":27:0), %arg4: i32 loc("/home/mlevental/dev_projects/triton/python/triton_mlir/test/test_complex_matmul.py":27:0), %arg5: i32 loc("/home/mlevental/dev_projects/triton/python/triton_mlir/test/test_complex_matmul.py":27:0), %arg6: i32 loc("/home/mlevental/dev_projects/triton/python/triton_mlir/test/test_complex_matmul.py":27:0), %arg7: i32 loc("/home/mlevental/dev_projects/triton/python/triton_mlir/test/test_complex_matmul.py":27:0), %arg8: i32 loc("/home/mlevental/dev_projects/triton/python/triton_mlir/test/test_complex_matmul.py":27:0), %arg9: i32 loc("/home/mlevental/dev_projects/triton/python/triton_mlir/test/test_complex_matmul.py":27:0), %arg10: i32 loc("/home/mlevental/dev_projects/triton/python/triton_mlir/test/test_complex_matmul.py":27:0), %arg11: i32 loc("/home/mlevental/dev_projects/triton/python/triton_mlir/test/test_complex_matmul.py":27:0), %arg12: i32 loc("/home/mlevental/dev_projects/triton/python/triton_mlir/test/test_complex_matmul.py":27:0), %arg13: i32 loc("/home/mlevental/dev_projects/triton/python/triton_mlir/test/test_complex_matmul.py":27:0)) attributes {noinline = false} {
    %c31_i32 = arith.constant 31 : i32 loc(#loc1)
    %cst = arith.constant dense<0.000000e+00> : tensor<32x32xf32> loc(#loc1)
    %c8_i32 = arith.constant 8 : i32 loc(#loc1)
    %c4_i32 = arith.constant 4 : i32 loc(#loc1)
    %c16_i32 = arith.constant 16 : i32 loc(#loc1)
    %c32_i32 = arith.constant 32 : i32 loc(#loc1)
    %c1_i32 = arith.constant 1 : i32 loc(#loc1)
    %c0_i32 = arith.constant 0 : i32 loc(#loc1)
    %0 = arith.cmpi sgt, %arg7, %c0_i32 : i32 loc(#loc2)
    llvm.intr.assume %0 : i1 loc(#loc3)
    %1 = arith.cmpi sgt, %arg8, %c0_i32 : i32 loc(#loc4)
    llvm.intr.assume %1 : i1 loc(#loc5)
    %2 = arith.cmpi sgt, %arg9, %c0_i32 : i32 loc(#loc6)
    llvm.intr.assume %2 : i1 loc(#loc7)
    %3 = arith.cmpi sgt, %arg10, %c0_i32 : i32 loc(#loc8)
    llvm.intr.assume %3 : i1 loc(#loc9)
    %4 = arith.cmpi sgt, %arg11, %c0_i32 : i32 loc(#loc10)
    llvm.intr.assume %4 : i1 loc(#loc11)
    %5 = arith.cmpi sgt, %arg12, %c0_i32 : i32 loc(#loc12)
    llvm.intr.assume %5 : i1 loc(#loc13)
    %6 = arith.cmpi sgt, %arg13, %c0_i32 : i32 loc(#loc14)
    llvm.intr.assume %6 : i1 loc(#loc15)
    %7 = arith.cmpi sge, %arg6, %c1_i32 : i32 loc(#loc16)
    llvm.intr.assume %7 : i1 loc(#loc17)
    %8 = arith.cmpi sge, %arg6, %c32_i32 : i32 loc(#loc18)
    llvm.intr.assume %8 : i1 loc(#loc19)
    %9 = tt.get_program_id x : i32 loc(#loc20)
    %10 = arith.addi %arg4, %c31_i32 : i32 loc(#loc80)
    %11 = arith.divsi %10, %c32_i32 : i32 loc(#loc81)
    %12 = arith.addi %arg5, %c31_i32 : i32 loc(#loc82)
    %13 = arith.divsi %12, %c32_i32 : i32 loc(#loc83)
    %14 = arith.remsi %9, %c4_i32 : i32 loc(#loc25)
    %15 = arith.divsi %9, %c4_i32 : i32 loc(#loc26)
    %16 = arith.muli %14, %c16_i32 : i32 loc(#loc27)
    %17 = arith.addi %16, %15 : i32 loc(#loc28)
    %18 = arith.muli %13, %c8_i32 : i32 loc(#loc29)
    %19 = arith.divsi %17, %18 : i32 loc(#loc30)
    %20 = arith.muli %19, %c8_i32 : i32 loc(#loc31)
    %21 = arith.subi %11, %20 : i32 loc(#loc32)
    %22 = arith.minsi %21, %c8_i32 : i32 loc(#loc33)
    %23 = arith.remsi %17, %18 : i32 loc(#loc34)
    %24 = arith.remsi %23, %22 : i32 loc(#loc35)
    %25 = arith.addi %20, %24 : i32 loc(#loc36)
    %26 = arith.divsi %23, %22 : i32 loc(#loc37)
    %27 = arith.cmpi sgt, %25, %c0_i32 : i32 loc(#loc38)
    llvm.intr.assume %27 : i1 loc(#loc39)
    %28 = arith.cmpi sgt, %26, %c0_i32 : i32 loc(#loc40)
    llvm.intr.assume %28 : i1 loc(#loc41)
    %29 = tt.make_range {end = 32 : i32, start = 0 : i32} : tensor<32xi32> loc(#loc42)
    %30 = arith.muli %25, %c32_i32 : i32 loc(#loc43)
    %31 = tt.splat %30 : i32 -> tensor<32xi32> loc(#loc44)
    %32 = arith.addi %31, %29 : tensor<32xi32> loc(#loc44)
    %33 = arith.muli %26, %c32_i32 : i32 loc(#loc45)
    %34 = tt.splat %33 : i32 -> tensor<32xi32> loc(#loc46)
    %35 = arith.addi %34, %29 : tensor<32xi32> loc(#loc46)
    %36 = tt.expand_dims %32 {axis = 1 : i32} : tensor<32xi32> -> tensor<32x1xi32> loc(#loc47)
    %37 = tt.splat %arg7 : i32 -> tensor<32x1xi32> loc(#loc48)
    %38 = arith.muli %36, %37 : tensor<32x1xi32> loc(#loc48)
    %39 = tt.splat %arg0 : !tt.ptr<f32> -> tensor<32x1x!tt.ptr<f32>> loc(#loc49)
    %40 = tt.addptr %39, %38 : tensor<32x1x!tt.ptr<f32>>, tensor<32x1xi32> loc(#loc49)
    %41 = tt.expand_dims %29 {axis = 0 : i32} : tensor<32xi32> -> tensor<1x32xi32> loc(#loc50)
    %42 = tt.splat %arg8 : i32 -> tensor<1x32xi32> loc(#loc51)
    %43 = arith.muli %41, %42 : tensor<1x32xi32> loc(#loc51)
    %44 = tt.broadcast %40 : tensor<32x1x!tt.ptr<f32>> -> tensor<32x32x!tt.ptr<f32>> loc(#loc52)
    %45 = tt.broadcast %43 : tensor<1x32xi32> -> tensor<32x32xi32> loc(#loc52)
    %46 = tt.addptr %44, %45 : tensor<32x32x!tt.ptr<f32>>, tensor<32x32xi32> loc(#loc52)
    %47 = tt.expand_dims %29 {axis = 1 : i32} : tensor<32xi32> -> tensor<32x1xi32> loc(#loc53)
    %48 = tt.splat %arg9 : i32 -> tensor<32x1xi32> loc(#loc54)
    %49 = arith.muli %47, %48 : tensor<32x1xi32> loc(#loc54)
    %50 = tt.splat %arg1 : !tt.ptr<f32> -> tensor<32x1x!tt.ptr<f32>> loc(#loc55)
    %51 = tt.addptr %50, %49 : tensor<32x1x!tt.ptr<f32>>, tensor<32x1xi32> loc(#loc55)
    %52 = tt.expand_dims %35 {axis = 0 : i32} : tensor<32xi32> -> tensor<1x32xi32> loc(#loc56)
    %53 = tt.splat %arg10 : i32 -> tensor<1x32xi32> loc(#loc57)
    %54 = arith.muli %52, %53 : tensor<1x32xi32> loc(#loc57)
    %55 = tt.broadcast %51 : tensor<32x1x!tt.ptr<f32>> -> tensor<32x32x!tt.ptr<f32>> loc(#loc58)
    %56 = tt.broadcast %54 : tensor<1x32xi32> -> tensor<32x32xi32> loc(#loc58)
    %57 = tt.addptr %55, %56 : tensor<32x32x!tt.ptr<f32>>, tensor<32x32xi32> loc(#loc58)
    %58 = arith.addi %arg6, %c31_i32 : i32 loc(#loc84)
    %59 = arith.divsi %58, %c32_i32 : i32 loc(#loc85)
    %60 = arith.cmpi sge, %59, %c1_i32 : i32 loc(#loc60)
    llvm.intr.assume %60 : i1 loc(#loc61)
    %61 = arith.muli %arg8, %c32_i32 : i32 loc(#loc62)
    %62 = tt.splat %61 : i32 -> tensor<32x32xi32> loc(#loc63)
    %63 = arith.muli %arg9, %c32_i32 : i32 loc(#loc64)
    %64 = tt.splat %63 : i32 -> tensor<32x32xi32> loc(#loc65)
    %65:3 = scf.for %arg14 = %c0_i32 to %59 step %c1_i32 iter_args(%arg15 = %cst, %arg16 = %46, %arg17 = %57) -> (tensor<32x32xf32>, tensor<32x32x!tt.ptr<f32>>, tensor<32x32x!tt.ptr<f32>>)  : i32 {
      %82 = tt.load %arg16 : tensor<32x32x!tt.ptr<f32>> loc(#loc67)
      %83 = tt.load %arg17 : tensor<32x32x!tt.ptr<f32>> loc(#loc68)
      %84 = tt.dot %82, %83, %arg15 : tensor<32x32xf32> * tensor<32x32xf32> -> tensor<32x32xf32> loc(#loc69)
      %85 = tt.addptr %arg16, %62 : tensor<32x32x!tt.ptr<f32>>, tensor<32x32xi32> loc(#loc63)
      %86 = tt.addptr %arg17, %64 : tensor<32x32x!tt.ptr<f32>>, tensor<32x32xi32> loc(#loc65)
      scf.yield %84, %85, %86 : tensor<32x32xf32>, tensor<32x32x!tt.ptr<f32>>, tensor<32x32x!tt.ptr<f32>> loc(#loc70)
    } loc(#loc66)
    %66 = tt.splat %arg11 : i32 -> tensor<32x1xi32> loc(#loc71)
    %67 = arith.muli %66, %36 : tensor<32x1xi32> loc(#loc71)
    %68 = tt.splat %arg2 : !tt.ptr<f32> -> tensor<32x1x!tt.ptr<f32>> loc(#loc72)
    %69 = tt.addptr %68, %67 : tensor<32x1x!tt.ptr<f32>>, tensor<32x1xi32> loc(#loc72)
    %70 = tt.splat %arg12 : i32 -> tensor<1x32xi32> loc(#loc73)
    %71 = arith.muli %70, %52 : tensor<1x32xi32> loc(#loc73)
    %72 = tt.broadcast %69 : tensor<32x1x!tt.ptr<f32>> -> tensor<32x32x!tt.ptr<f32>> loc(#loc74)
    %73 = tt.broadcast %71 : tensor<1x32xi32> -> tensor<32x32xi32> loc(#loc74)
    %74 = tt.addptr %72, %73 : tensor<32x32x!tt.ptr<f32>>, tensor<32x32xi32> loc(#loc74)
    %75 = tt.splat %arg4 : i32 -> tensor<32x1xi32> loc(#loc75)
    %76 = arith.cmpi slt, %36, %75 : tensor<32x1xi32> loc(#loc75)
    %77 = tt.splat %arg5 : i32 -> tensor<1x32xi32> loc(#loc76)
    %78 = arith.cmpi slt, %52, %77 : tensor<1x32xi32> loc(#loc76)
    %79 = tt.broadcast %76 : tensor<32x1xi1> -> tensor<32x32xi1> loc(#loc77)
    %80 = tt.broadcast %78 : tensor<1x32xi1> -> tensor<32x32xi1> loc(#loc77)
    %81 = arith.andi %79, %80 : tensor<32x32xi1> loc(#loc77)
    tt.store %74, %65#0, %81 : tensor<32x32x!tt.ptr<f32>> loc(#loc78)
    tt.return loc(#loc79)
  } loc(#loc)
} loc(#loc)
#loc1 = loc(unknown)
#loc2 = loc("/home/mlevental/dev_projects/triton/python/triton_mlir/test/test_complex_matmul.py":53:26)
#loc3 = loc("/home/mlevental/dev_projects/triton/python/triton_mlir/test/test_complex_matmul.py":53:14)
#loc4 = loc("/home/mlevental/dev_projects/triton/python/triton_mlir/test/test_complex_matmul.py":54:26)
#loc5 = loc("/home/mlevental/dev_projects/triton/python/triton_mlir/test/test_complex_matmul.py":54:14)
#loc6 = loc("/home/mlevental/dev_projects/triton/python/triton_mlir/test/test_complex_matmul.py":55:26)
#loc7 = loc("/home/mlevental/dev_projects/triton/python/triton_mlir/test/test_complex_matmul.py":55:14)
#loc8 = loc("/home/mlevental/dev_projects/triton/python/triton_mlir/test/test_complex_matmul.py":56:26)
#loc9 = loc("/home/mlevental/dev_projects/triton/python/triton_mlir/test/test_complex_matmul.py":56:14)
#loc10 = loc("/home/mlevental/dev_projects/triton/python/triton_mlir/test/test_complex_matmul.py":57:26)
#loc11 = loc("/home/mlevental/dev_projects/triton/python/triton_mlir/test/test_complex_matmul.py":57:14)
#loc12 = loc("/home/mlevental/dev_projects/triton/python/triton_mlir/test/test_complex_matmul.py":58:26)
#loc13 = loc("/home/mlevental/dev_projects/triton/python/triton_mlir/test/test_complex_matmul.py":58:14)
#loc14 = loc("/home/mlevental/dev_projects/triton/python/triton_mlir/test/test_complex_matmul.py":59:28)
#loc15 = loc("/home/mlevental/dev_projects/triton/python/triton_mlir/test/test_complex_matmul.py":59:14)
#loc16 = loc("/home/mlevental/dev_projects/triton/python/triton_mlir/test/test_complex_matmul.py":60:19)
#loc17 = loc("/home/mlevental/dev_projects/triton/python/triton_mlir/test/test_complex_matmul.py":60:14)
#loc18 = loc("/home/mlevental/dev_projects/triton/python/triton_mlir/test/test_complex_matmul.py":61:19)
#loc19 = loc("/home/mlevental/dev_projects/triton/python/triton_mlir/test/test_complex_matmul.py":61:14)
#loc20 = loc("/home/mlevental/dev_projects/triton/python/triton_mlir/test/test_complex_matmul.py":63:24)
#loc21 = loc("/home/mlevental/dev_projects/triton/python/triton/language/standard.py":40:22)
#loc22 = loc("/home/mlevental/dev_projects/triton/python/triton_mlir/test/test_complex_matmul.py":65:27)
#loc23 = loc("/home/mlevental/dev_projects/triton/python/triton/language/standard.py":40:28)
#loc24 = loc("/home/mlevental/dev_projects/triton/python/triton_mlir/test/test_complex_matmul.py":66:27)
#loc25 = loc("/home/mlevental/dev_projects/triton/python/triton_mlir/test/test_complex_matmul.py":73:20)
#loc26 = loc("/home/mlevental/dev_projects/triton/python/triton_mlir/test/test_complex_matmul.py":74:27)
#loc27 = loc("/home/mlevental/dev_projects/triton/python/triton_mlir/test/test_complex_matmul.py":76:20)
#loc28 = loc("/home/mlevental/dev_projects/triton/python/triton_mlir/test/test_complex_matmul.py":76:35)
#loc29 = loc("/home/mlevental/dev_projects/triton/python/triton_mlir/test/test_complex_matmul.py":82:42)
#loc30 = loc("/home/mlevental/dev_projects/triton/python/triton_mlir/test/test_complex_matmul.py":83:26)
#loc31 = loc("/home/mlevental/dev_projects/triton/python/triton_mlir/test/test_complex_matmul.py":84:33)
#loc32 = loc("/home/mlevental/dev_projects/triton/python/triton_mlir/test/test_complex_matmul.py":85:39)
#loc33 = loc("/home/mlevental/dev_projects/triton/python/triton_mlir/test/test_complex_matmul.py":85:52)
#loc34 = loc("/home/mlevental/dev_projects/triton/python/triton_mlir/test/test_complex_matmul.py":86:38)
#loc35 = loc("/home/mlevental/dev_projects/triton/python/triton_mlir/test/test_complex_matmul.py":86:58)
#loc36 = loc("/home/mlevental/dev_projects/triton/python/triton_mlir/test/test_complex_matmul.py":86:31)
#loc37 = loc("/home/mlevental/dev_projects/triton/python/triton_mlir/test/test_complex_matmul.py":87:44)
#loc38 = loc("/home/mlevental/dev_projects/triton/python/triton_mlir/test/test_complex_matmul.py":89:22)
#loc39 = loc("/home/mlevental/dev_projects/triton/python/triton_mlir/test/test_complex_matmul.py":89:14)
#loc40 = loc("/home/mlevental/dev_projects/triton/python/triton_mlir/test/test_complex_matmul.py":90:22)
#loc41 = loc("/home/mlevental/dev_projects/triton/python/triton_mlir/test/test_complex_matmul.py":90:14)
#loc42 = loc("/home/mlevental/dev_projects/triton/python/triton_mlir/test/test_complex_matmul.py":93:30)
#loc43 = loc("/home/mlevental/dev_projects/triton/python/triton_mlir/test/test_complex_matmul.py":96:22)
#loc44 = loc("/home/mlevental/dev_projects/triton/python/triton_mlir/test/test_complex_matmul.py":96:37)
#loc45 = loc("/home/mlevental/dev_projects/triton/python/triton_mlir/test/test_complex_matmul.py":97:22)
#loc46 = loc("/home/mlevental/dev_projects/triton/python/triton_mlir/test/test_complex_matmul.py":97:37)
#loc47 = loc("/home/mlevental/dev_projects/triton/python/triton_mlir/test/test_complex_matmul.py":98:29)
#loc48 = loc("/home/mlevental/dev_projects/triton/python/triton_mlir/test/test_complex_matmul.py":98:40)
#loc49 = loc("/home/mlevental/dev_projects/triton/python/triton_mlir/test/test_complex_matmul.py":98:21)
#loc50 = loc("/home/mlevental/dev_projects/triton/python/triton_mlir/test/test_complex_matmul.py":98:59)
#loc51 = loc("/home/mlevental/dev_projects/triton/python/triton_mlir/test/test_complex_matmul.py":98:70)
#loc52 = loc("/home/mlevental/dev_projects/triton/python/triton_mlir/test/test_complex_matmul.py":98:52)
#loc53 = loc("/home/mlevental/dev_projects/triton/python/triton_mlir/test/test_complex_matmul.py":99:28)
#loc54 = loc("/home/mlevental/dev_projects/triton/python/triton_mlir/test/test_complex_matmul.py":99:39)
#loc55 = loc("/home/mlevental/dev_projects/triton/python/triton_mlir/test/test_complex_matmul.py":99:21)
#loc56 = loc("/home/mlevental/dev_projects/triton/python/triton_mlir/test/test_complex_matmul.py":99:59)
#loc57 = loc("/home/mlevental/dev_projects/triton/python/triton_mlir/test/test_complex_matmul.py":99:70)
#loc58 = loc("/home/mlevental/dev_projects/triton/python/triton_mlir/test/test_complex_matmul.py":99:51)
#loc59 = loc("/home/mlevental/dev_projects/triton/python/triton_mlir/test/test_complex_matmul.py":105:19)
#loc60 = loc("/home/mlevental/dev_projects/triton/python/triton_mlir/test/test_complex_matmul.py":106:19)
#loc61 = loc("/home/mlevental/dev_projects/triton/python/triton_mlir/test/test_complex_matmul.py":106:14)
#loc62 = loc("/home/mlevental/dev_projects/triton/python/triton_mlir/test/test_complex_matmul.py":119:43)
#loc63 = loc("/home/mlevental/dev_projects/triton/python/triton_mlir/test/test_complex_matmul.py":119:18)
#loc64 = loc("/home/mlevental/dev_projects/triton/python/triton_mlir/test/test_complex_matmul.py":120:43)
#loc65 = loc("/home/mlevental/dev_projects/triton/python/triton_mlir/test/test_complex_matmul.py":120:18)
#loc66 = loc("/home/mlevental/dev_projects/triton/python/triton_mlir/test/test_complex_matmul.py":107:22)
#loc67 = loc("/home/mlevental/dev_projects/triton/python/triton_mlir/test/test_complex_matmul.py":109:24)
#loc68 = loc("/home/mlevental/dev_projects/triton/python/triton_mlir/test/test_complex_matmul.py":110:24)
#loc69 = loc("/home/mlevental/dev_projects/triton/python/triton_mlir/test/test_complex_matmul.py":118:33)
#loc70 = loc("/home/mlevental/dev_projects/triton/python/triton_mlir/test/test_complex_matmul.py":120:8)
#loc71 = loc("/home/mlevental/dev_projects/triton/python/triton_mlir/test/test_complex_matmul.py":126:33)
#loc72 = loc("/home/mlevental/dev_projects/triton/python/triton_mlir/test/test_complex_matmul.py":126:21)
#loc73 = loc("/home/mlevental/dev_projects/triton/python/triton_mlir/test/test_complex_matmul.py":126:64)
#loc74 = loc("/home/mlevental/dev_projects/triton/python/triton_mlir/test/test_complex_matmul.py":126:52)
#loc75 = loc("/home/mlevental/dev_projects/triton/python/triton_mlir/test/test_complex_matmul.py":127:33)
#loc76 = loc("/home/mlevental/dev_projects/triton/python/triton_mlir/test/test_complex_matmul.py":127:58)
#loc77 = loc("/home/mlevental/dev_projects/triton/python/triton_mlir/test/test_complex_matmul.py":127:39)
#loc78 = loc("/home/mlevental/dev_projects/triton/python/triton_mlir/test/test_complex_matmul.py":129:25)
#loc79 = loc("/home/mlevental/dev_projects/triton/python/triton_mlir/test/test_complex_matmul.py":128:4)
#loc80 = loc(callsite(#loc21 at #loc22))
#loc81 = loc(callsite(#loc23 at #loc22))
#loc82 = loc(callsite(#loc21 at #loc24))
#loc83 = loc(callsite(#loc23 at #loc24))
#loc84 = loc(callsite(#loc21 at #loc59))
#loc85 = loc(callsite(#loc23 at #loc59))
